SS_models/03_pytorch_cv_model_2.pth (torch, 35004 bytes, 10 tensors)

conv_block_1.0.weight f4 [10, 1, 3, 3]
0	0x3e7fa40f	0.24964927
1	0x3e9cd35f	0.30630013
2	0xbec7ac99	-0.3899887
3	0x3ddcbd28	0.10778266
4	0x3e1a79a6	0.15085468
5	0x3d49684b	0.049171727
6	0xbe8db1a5	-0.27674595
7	0x3deb22c6	0.11481242
8	0x3ec7955f	0.3898115
9	0xbe90bd3b	-0.2826937
10	0x3ed3ec3c	0.4139117
11	0xbdf2e49f	-0.11860012
12	0x3e4d658a	0.20058265
13	0x3f082898	0.5318694
14	0x3e29643b	0.16542141
15	0xbe8b375c	-0.27190673
16	0x3ec75ef3	0.38939628
17	0x3ded6577	0.115916185
18	0xbe46108b	-0.19342248
19	0xbd6da8e1	-0.058022384
20	0xbda03fe5	-0.07824687
21	0xbf3d66ac	-0.7398479
22	0xbf3af6ce	-0.73032844
23	0x3e767226	0.24066982
24	0xbf5b0832	-0.8555938
25	0xbf39dbd9	-0.72601086
26	0xbe127cb4	-0.14305383
27	0xbf394a31	-0.7237883
28	0xbf4bce6c	-0.7961185
29	0xbf319354	-0.6936543
30	0x3e7fbe52	0.24974945
31	0xbef471bd	-0.47743025
32	0x3e72dde5	0.23717459
33	0x3eb32d9a	0.3499573
34	0x3d87483f	0.06605577
35	0x3ec51904	0.38495648
36	0xbe02aa49	-0.12760271
37	0x3ecc8b1b	0.3994988
38	0xbdfe3f8d	-0.12414465
39	0xbe6bfee3	-0.2304645
40	0x3ebb901e	0.3663339
41	0xbe370a8a	-0.17875114
42	0xbdf1acbf	-0.11800527
43	0x3ec3a6fc	0.38213336
44	0x3de2e203	0.110782646
45	0xbe1c1315	-0.15241654
46	0x3e3a7894	0.1821006
47	0x3d6345c1	0.055486444
48	0x3e2882ff	0.16456221
49	0xbe531e4b	-0.20617025
50	0xbea9e64e	-0.3318352
51	0xbe0410ab	-0.12896983
52	0xbe83b25d	-0.25722018
53	0x3e845fba	0.25854284
54	0x3e4bf15b	0.19916289
55	0x3e195900	0.14975357
56	0x3d990ff4	0.07473746
57	0x3dc325b6	0.09528677
58	0x3e0a2b9c	0.13493198
59	0xbe704805	-0.23464973
60	0xbc8046fc	-0.015658848
61	0xbf0d8884	-0.5528643
62	0x3b72c2bc	0.003704234
63	0xbe6336e9	-0.22188915
64	0xbd21ee87	-0.039534118
65	0xbe5ebee5	-0.21752508
66	0x3e8ed2ee	0.27895302
67	0xbe3987c0	-0.18118191
68	0xbe5de319	-0.21668662
69	0xbe48f891	-0.1962607
70	0x3eda1ffa	0.4260252
71	0x3e875fdd	0.26440325
72	0x3ed3d1a8	0.41370893
73	0xbe89a944	-0.26886952
74	0xbeb0c0c2	-0.34522063
75	0xbe8a9b5b	-0.27071652
76	0xbe832228	-0.25611997
77	0x3e241ee6	0.16027412
78	0x3e6cbeb8	0.23119628
79	0x3eced014	0.40393126
80	0xbe1ff8fa	-0.15622321
81	0xbe689484	-0.22712904
82	0x3e33939e	0.1753678
83	0xbe0a3c81	-0.13499643
84	0x3e4e8e91	0.20171572
85	0xbda41815	-0.08012406
86	0x3e4221a7	0.1895815
87	0xbe84994b	-0.25898203
88	0xbe2c6649	-0.16835894
89	0x3dcea57f	0.100901596

conv_block_1.0.bias f4 [10]
0	0x3d150ded	0.036390234
1	0x3dd959b7	0.10612815
2	0x3e2fca2b	0.17166965
3	0x3e052e3a	0.13005915
4	0xbd41a3a3	-0.047275197
5	0xbe4aebd1	-0.1981652
6	0x3deecf86	0.11660676
7	0xbdde8c6a	-0.108666256
8	0xbd234bcc	-0.039867207
9	0xbea5ee2b	-0.3240827

conv_block_1.2.weight f4 [10, 10, 3, 3]
0	0x3cf5fefd	0.030028814
1	0x3d9a61c5	0.07538179
2	0x3d26763f	0.040640112
3	0xbe2d0348	-0.16895783
4	0xbe43b990	-0.19113755
5	0xbe249c0d	-0.16075154
6	0xbe10b6dd	-0.14132257
7	0xbe527293	-0.20551519
8	0xbe4f3ce6	-0.20238075
9	0xbd35750c	-0.044301078
10	0x3ca0f082	0.019645933
11	0xbc5b9e19	-0.013404393
12	0xbe80e4d2	-0.25174576
13	0xbec0a811	-0.37628224
14	0xbe7450a2	-0.23858884
15	0xbe43a321	-0.19105197
16	0xbe5f4717	-0.21804462
17	0xbe4ea093	-0.20178442
18	0xbd6c2403	-0.05765153
19	0x3cf94f7b	0.030433407
20	0x3d9e1702	0.07719232
21	0x3d654e25	0.055982728
22	0x3e954cd6	0.29160184
23	0x3e4791c1	0.19489194
24	0xbe0308cb	-0.12796323
25	0x3cb2bdba	0.021818984
26	0x3dda2025	0.10650662
27	0xbe11e538	-0.14247596
28	0xbc74a9f8	-0.014933102
29	0xbe1fbcc4	-0.15599352
30	0x3d66a14b	0.056306165
31	0xbcc33012	-0.023826633
32	0xbd9ceace	-0.07661973
33	0x3e2ade38	0.16686332
34	0x3d2ef327	0.042712357
35	0x3d678bdf	0.056529876
36	0xbe0d1db1	-0.13780858
37	0xbe087ac5	-0.13328083
38	0x3c82d335	0.015969852
39	0xbd8537d2	-0.065047875
40	0x3ceefc1c	0.02917295
41	0xbdc7b843	-0.09751942
42	0x3d698571	0.057012025
43	0xbdb3009c	-0.087403506
44	0xbc97a2c3	-0.018510228
45	0x3cb6c365	0.022309968
46	0x3d5fc6f8	0.05463311
47	0x3dae25a1	0.08503271
48	0x3dc56c2f	0.09639775
49	0xbdab13ba	-0.08353372
50	0x3cf0facd	0.029416466
51	0xbd388286	-0.04504635
52	0xbc51e771	-0.012811528
53	0xbd9f8f38	-0.07790989
54	0x3e44b1fc	0.1920852
55	0xbb6d38a5	-0.0036197093
56	0x3d16a1a6	0.036775254
57	0x3df9fde2	0.122066274
58	0x3d81d989	0.0634032
59	0xbd238569	-0.03992215
60	0x3db67961	0.0890987
61	0xbb322237	-0.0027181038
62	0xbd6020ae	-0.054718666
63	0xbdc41067	-0.09573441
64	0x3d27ade2	0.040937312
65	0xbbe90039	-0.0071106222
66	0xbd45e715	-0.04831608
67	0x3db6b8fc	0.08922002
68	0x3ca45103	0.02005816
69	0xbd24fd79	-0.040280793
70	0xbd5fbc60	-0.054623008
71	0xbc161a0c	-0.0091614835
72	0x3d76ed89	0.060285125
73	0xba23944a	-0.00062400533
74	0xbd216209	-0.039400134
75	0xbd1ce264	-0.03830184
76	0xbd866446	-0.065620944
77	0x3d6b5d63	0.057462107
78	0x3daf3352	0.085547104
79	0xbdfa3c31	-0.12218512
80	0x3c727556	0.014798483
81	0x3d5f0805	0.054451007
82	0x3c9c98b4	0.019115783
83	0xbd19675c	-0.037452087
84	0x3d615707	0.055014636
85	0x3d62e4c6	0.055393957
86	0x3d2179ac	0.039422676
87	0xbc97bcd8	-0.018522665
88	0xbce4a422	-0.027910296
89	0x3c38a398	0.011269473
90	0xbc53b23e	-0.012920914
91	0x3b1c457b	0.0023845125
92	0x3dee3cc9	0.116326876
93	0x3da28b0a	0.07936676
94	0xbb8191fb	-0.00395417
95	0x3c043682	0.008069636
96	0xbd3dde1e	-0.046354406
97	0xbd323706	-0.043509506
98	0x3b8a2ddb	0.004216892
99	0x3d5a1e5c	0.05325161
100	0xbd523f85	-0.05133011
101	0x3cb9af95	0.022666732
102	0x3da88029	0.082275696
103	0x3d6a3e08	0.057188064
104	0x3cd5239a	0.026017953
105	0xbdfefd19	-0.12450618
106	0xbde4068f	-0.111340635
107	0xbe069b82	-0.13145259
108	0xbd235b04	-0.03988172
109	0x3cfb2f09	0.030662077
110	0x3d69b0d2	0.057053395
111	0x3d14e064	0.036346808
112	0xbdd4a245	-0.10382513
113	0xbd9967e7	-0.07490521
114	0xbcc61b36	-0.024182897
115	0x3dbd3dc8	0.092402995
116	0x3be373b8	0.006941285
117	0xbc9473b6	-0.018121582
118	0x3cfd5320	0.030923426
119	0xbd61f66f	-0.055166658
120	0xbd89818d	-0.06714163
121	0x3d92addf	0.071620695
122	0xbd6b164c	-0.05739431
123	0xbcbef56f	-0.023310391
124	0xbde1362d	-0.10996661
125	0x3d87ecdc	0.06636974
126	0x3d8c2b6d	0.0684422
127	0x3d104e9b	0.035231214
128	0xbd67a8fc	-0.05655764
129	0xbe0420ae	-0.12903091
130	0xbdd45abc	-0.10368869
131	0x3da33d13	0.07970633
132	0x3cdb20eb	0.026749095
133	0x3da76cb6	0.08175032
134	0x3d627544	0.055287614
135	0x3cdac940	0.026707292
136	0xba7809fa	-0.0009461936
137	0xbda42122	-0.08014132
138	0xbdb8e010	-0.090271115
139	0xbdc9a244	-0.09845403
140	0x3d33a1b3	0.04385538
141	0xbd529fe9	-0.051422033
142	0xbcac4088	-0.021026865
143	0xbd78fb8d	-0.060786773
144	0xbcde8a78	-0.027165636
145	0xbda8a199	-0.08233947
146	0xbd9b132d	-0.07572017
147	0x3d4bcbb8	0.04975483
148	0xbca227da	-0.019794393
149	0x3dd2f974	0.10301486
150	0xbd1beb87	-0.038066413
151	0xbda95b36	-0.0826935
152	0xbcc5399a	-0.024075318
153	0xbd6ace1b	-0.057325464
154	0xbd158a37	-0.036508765
155	0xbdd3538f	-0.10318672
156	0x3d5a636d	0.053317476
157	0xbd9927bf	-0.07478284
158	0x3d593e0a	0.05303768
159	0x3d478248	0.04870823
160	0x3d9d014b	0.07666262
161	0xbda6752a	-0.08127816
162	0x3d9ae69c	0.075635165
163	0xbd54915b	-0.051896434
164	0x3d1d09c2	0.038339384
165	0x3dc11357	0.09427517
166	0xbca2f3ac	-0.019891582
167	0xbb8f7cbc	-0.004378883
168	0xbcd30658	-0.02575986
169	0xbdbfa071	-0.09356774
170	0x3d4f15e6	0.050557993
171	0xbdd65159	-0.104647346
172	0x3d861055	0.06546084
173	0x3da1897c	0.07887551
174	0x3dcc20b4	0.09967175
175	0xbccbd0a8	-0.024879768
176	0xbdb16143	-0.08661129
177	0x3cc21928	0.023693636
178	0x3d6e8345	0.058230657
179	0xbdd6df9b	-0.10491868
180	0xbccba9c7	-0.02486123
181	0xbd84236a	-0.06452067
182	0xbc33da30	-0.010977313
183	0xbd53a390	-0.051669657
184	0xbd2df94f	-0.042474087
185	0xbd017d00	-0.03161335
186	0xbdcc4fe8	-0.099761784
187	0x3db8cf15	0.09023873
188	0x3dbc05ec	0.09180817
189	0xbc90cbae	-0.017675247
190	0xbc529a34	-0.012854148
191	0xbd356f02	-0.04429532
192	0xbdc95df3	-0.098323725
193	0xbdcebbce	-0.10094415
194	0x3d1b0844	0.03784968
195	0xbd79888b	-0.060921233
196	0xbd885994	-0.06657711
197	0xbbdc161d	-0.0067165033
198	0xbd2bd553	-0.04195149
199	0xbd3d1986	-0.04616692
200	0xbc07f5ef	-0.008298381
201	0xbca3696c	-0.01994773
202	0xbd0da60e	-0.03458219
203	0xbd560c7c	-0.052258
204	0xbdafdd0e	-0.08587085
205	0x3db2510a	0.08706863
206	0xbd2d5c0a	-0.042324103
207	0x3ca85fe1	0.020553531
208	0xbd24f49e	-0.040272348
209	0x3b7747dc	0.003773204
210	0x3dbdfe21	0.09276987
211	0x3d3497c4	0.044090047
212	0xbdb9959f	-0.09061741
213	0x3d309923	0.043114793
214	0x3dc0cc4d	0.09413967
215	0x3cf25bd9	0.029584812
216	0x3d909aff	0.07060813
217	0x3dd4eb10	0.10396397
218	0xbc835d48	-0.01603569
219	0x3cafb946	0.02145065
220	0xbd956240	-0.0729413
221	0xbcb2b3e6	-0.021814298
222	0x3d9ea453	0.07746186
223	0x3d68cc5d	0.05683552
224	0xbd87bd63	-0.066279195
225	0xbdad1dce	-0.084529504
226	0xbd9385f6	-0.072032854
227	0xbdd50bb8	-0.10402626
228	0xbda69437	-0.081337385
229	0xbcd69ee6	-0.026198816
230	0x3d91cef1	0.07119549
231	0x3c906eaa	0.017630894
232	0xbda449c5	-0.08021883
233	0xbdad326e	-0.08456884
234	0x3d3ba18d	0.045808364
235	0xbdaf6c39	-0.08565564
236	0xbca1fac4	-0.019772895
237	0x3d50852b	0.05090825
238	0xbd4e5173	-0.050370645
239	0xbc3c2e08	-0.011485584
240	0xbc395460	-0.0113116205
241	0xbccf4b77	-0.02530454
242	0xbd5dafcb	-0.054122727
243	0xbdc078c4	-0.09398034
244	0xbdae814f	-0.085207574
245	0xbd672c59	-0.056438778
246	0x3dca052d	0.098642685
247	0xbd4f82bf	-0.0506618
248	0xbd8ff3fc	-0.07028958
249	0x3cd09cd3	0.025465405
250	0x3ce22a9e	0.027608212
251	0x3d6f343c	0.058399424
252	0x3da1ffd4	0.079101235
253	0x3d7089fd	0.058725346
254	0xbdd61655	-0.10453478
255	0x3bfeb875	0.007773454

conv_block_1.2.bias f4 [10]
0	0x3ed03edb	0.40672955
1	0xbd1f9952	-0.038964577
2	0xbd7f6b29	-0.062358055
3	0x3f1adeb2	0.60496056
4	0xbdd0621b	-0.10174962
5	0xbcd767a2	-0.026294533
6	0x3e3470bc	0.1762113
7	0xbcaaf402	-0.020868305
8	0x3e398070	0.18115401
9	0xbde3c0d0	-0.111207604

conv_block_2.0.weight f4 [10, 10, 3, 3]
0	0x3c3de748	0.011590786
1	0xbe50c5d4	-0.20387965
2	0x3b694b19	0.003559774
3	0x3d38a28d	0.045076896
4	0x3b527bdd	0.0032117285
5	0x3e16f549	0.14742006
6	0xbd79309f	-0.060837384
7	0x3d2fc156	0.04290899
8	0x3dab47bf	0.08363294
9	0x3d6f4765	0.058417697
10	0xbdd0f4ba	-0.10202928
11	0xbd28196b	-0.041039865
12	0xbdcbe70f	-0.0995618
13	0xbd9ca18d	-0.07648001
14	0x3d3f9d66	0.046780966
15	0xbca77e87	-0.020446075
16	0x3d198809	0.03748325
17	0xbd94b494	-0.07261005
18	0x3c8c0c18	0.01709561
19	0xbd81b56b	-0.06333431
20	0x3d56b97b	0.05242298
21	0xbd3779bd	-0.044793833
22	0xbcd3156f	-0.025767056
23	0xbdbb5ae1	-0.09148193
24	0x3a8fcb7b	0.0010970676
25	0x3dce369b	0.10069009
26	0x3d530f42	0.051528223
27	0xbe541c75	-0.2071398
28	0x3dbe797c	0.09300515
29	0xbc56754b	-0.013089488
30	0xbe567b75	-0.20945533
31	0x3de6bdf4	0.112666994
32	0x3c505d1c	0.0127175115
33	0xbcfd2731	-0.030902477
34	0xbe025f14	-0.12731582
35	0x3cb3d74b	0.021953246
36	0x3c2f374f	0.010694339
37	0x3d3699f2	0.044580407
38	0xbc4ef38e	-0.01263131
39	0xbcb6269d	-0.02223521
40	0x3e006f72	0.12542513
41	0xbd459498	-0.048237413
42	0xbd1a3bef	-0.037654813
43	0xbd4e7a57	-0.05040964
44	0x3d940608	0.07227713
45	0xbcf99cd1	-0.030470284
46	0xbda44410	-0.080207944
47	0xbd76de5c	-0.060270652
48	0xbd3b2f15	-0.045699198
49	0xbdf1f134	-0.11813584
50	0xbe1f48f0	-0.15555167
51	0x3d16d9db	0.036828857
52	0x3d28ade8	0.041181475
53	0x3cdb0b47	0.026738776
54	0xbe218fe4	-0.15777546
55	0x3e5d7a8f	0.21628784
56	0xbe15ddef	-0.14635442
57	0x3e1a0226	0.15039882
58	0x3e093ee5	0.13402899
59	0x3d62cb05	0.055369396
60	0x3eabff93	0.33593425
61	0xbd177e21	-0.03698552
62	0xbdf17f19	-0.1179182
63	0x3d066c4e	0.03281813
64	0x3cebf2f9	0.028802382
65	0xbd73f015	-0.059555132
66	0x3c84c7cd	0.016208554
67	0x3d8f99e4	0.07011774
68	0xbe1cb2d4	-0.15302593
69	0x3de47e81	0.11156941
70	0xbdf0d626	-0.117595956
71	0xbdd94956	-0.10609691
72	0xbe57bff4	-0.21069318
73	0xbd199da6	-0.03750386
74	0xbcc2cd53	-0.023779547
75	0xbc3d2ac7	-0.011545843
76	0x3deff9e3	0.11717584
77	0x3d18d6fd	0.037314404
78	0xbdb54ca8	-0.08852512
79	0xbe0d3f06	-0.13793573
80	0x3d07cde0	0.033155322
81	0x3ecd4b0b	0.40096316
82	0x3d069c08	0.032863647
83	0xbdb47849	-0.08812005
84	0x3e9e63e2	0.3093558
85	0x3e6a6d75	0.22893317
86	0xbda67e21	-0.08129526
87	0x3dbfed2b	0.09371408
88	0x3e2c9b0b	0.16856019
89	0x3dcff2ff	0.1015377
90	0x3c71c7eb	0.014757137
91	0xbe31f0c5	-0.17377003
92	0xbe43c727	-0.1911894
93	0x3e20a466	0.15687713
94	0xbecf07ab	-0.40435538
95	0xbe444299	-0.1916603
96	0x3e03f58c	0.12886637
97	0x3de7ab6c	0.11311993
98	0xbdc3448a	-0.09534557
99	0x3d87b0c8	0.06625515
100	0xbd05ad08	-0.03263572
101	0xbda76c7c	-0.081749886
102	0xbd9b68e2	-0.07588364
103	0x3ddbd353	0.10733666
104	0x3c85c8e5	0.016331146
105	0x3d31008e	0.04321342
106	0xbc951e54	-0.018202938
107	0x3df835fd	0.121196724
108	0x3d84c66c	0.064831585
109	0x3d0c35ef	0.034231123
110	0xbd40e1dd	-0.0470904
111	0xbdb167db	-0.08662387
112	0x3b8f386e	0.0043707406
113	0xbd806dee	-0.062709674
114	0x3db103f3	0.086433314
115	0xbdcf5f98	-0.10125655
116	0x3d3fce37	0.04682752
117	0xbef37ffd	-0.47558585
118	0x3e54ad5d	0.20769258
119	0x3e44e46b	0.1922776
120	0x3d53c473	0.05170102
121	0x3f7299a2	0.94765675
122	0x3ecd5f9e	0.40112013
123	0xbf64b68f	-0.8934106
124	0xbe3426af	-0.17592882
125	0xbd75a71b	-0.059973817
126	0x3d9b0e81	0.07571126
127	0x3d449121	0.04798997
128	0xbd912d44	-0.07088712
129	0xbd83cc79	-0.064354844
130	0xbdb1574e	-0.0865923
131	0xbd7babe0	-0.06144321
132	0x3cc66601	0.024218561
133	0xbe19bc03	-0.15013127
134	0xbdcf967e	-0.10136126
135	0xbd898eb9	-0.06716675
136	0xbe8c8006	-0.27441424
137	0xbd8e55cd	-0.06949959
138	0x3e038f18	0.12847555
139	0x3e21a257	0.15784584
140	0x3cda5da1	0.026655974
141	0x3dd6b964	0.10484579
142	0x3e0e4208	0.13892376
143	0x3e120e25	0.14263208
144	0xbf199cbb	-0.60004777
145	0xbc6b937c	-0.014378425
146	0x3e62ecdf	0.22160672
147	0xbf11ced2	-0.5695621
148	0x3e9e77c7	0.30950758
149	0x3ebb5673	0.36589393
150	0xbebd3fa2	-0.3696261
151	0xbc95a08b	-0.01826503
152	0xbdcd16b5	-0.10014097
153	0xbe347918	-0.17624319
154	0xbe88ef96	-0.2674529
155	0x3d6270f9	0.05528352
156	0xbed9c4cf	-0.42532966
157	0x3d29cb84	0.041453853
158	0xbc4e465c	-0.012590017
159	0xbe538733	-0.20657043
160	0x3c316c73	0.010829079
161	0xbd7c3c38	-0.061580867
162	0xbf0a75f6	-0.54086244
163	0x3d66e292	0.056368418
164	0x3eb61aad	0.35567227
165	0xbde51b22	-0.11186816
166	0x3edbd2e1	0.42934325
167	0x3eec416d	0.46143666
168	0xbe987439	-0.2977617
169	0xbddb9f3d	-0.10723732
170	0xbe3c2a69	-0.18375553
171	0x3e9b1dbc	0.30296123
172	0x3d38904d	0.04505949
173	0xbcbc322e	-0.022973146
174	0x3e824104	0.25440228
175	0x3d9615ee	0.073284015
176	0xbe4f6f68	-0.20257342
177	0xbeb09fb5	-0.34496847
178	0x3cc86131	0.024460407
179	0x3e25b3ad	0.16181822
180	0xbd46607b	-0.048431855
181	0x3dabd68f	0.08390533
182	0x3d816ad0	0.06319201
183	0xbdc4c7b2	-0.09608401
184	0xbdcca439	-0.099922605
185	0xbde3c43b	-0.11121412
186	0xbd8777ec	-0.0661467
187	0xbd2afe02	-0.041746147
188	0xbcdd476b	-0.027011594
189	0xbcd52c4b	-0.026022097
190	0xbd5f2ead	-0.054487873
191	0xbd09a301	-0.03360272
192	0xbd2552ef	-0.040362295
193	0x3dd0f7cb	0.10203513
194	0xbd1f2352	-0.038852043
195	0xbd99cd8a	-0.075099066
196	0x3d33cd01	0.04389668
197	0xbb836449	-0.0040097577
198	0x3da52c25	0.080650605
199	0x3d86b57f	0.065775864
200	0x3dc67914	0.096910626
201	0xbd9e3116	-0.07724206
202	0x3d8ae661	0.067822225
203	0x3db53810	0.08848584
204	0xbd555a04	-0.0520878
205	0x3dc67513	0.09690299
206	0x3da1db86	0.07903199
207	0xbcdce549	-0.0269648
208	0x3cf03f50	0.029327065
209	0xbd9c6bf5	-0.07637779
210	0xbdf345a9	-0.11878521
211	0x3cf8a8f8	0.030354008
212	0x3cd07be4	0.0254497
213	0xbdb57830	-0.088608146
214	0x3d3606e5	0.04444017
215	0xbdba67c3	-0.09101822
216	0x3da6fe5d	0.08153985
217	0x3dcc72c6	0.09982829
218	0x3c8518bd	0.016247148
219	0xbd8b491c	-0.06801054
220	0x3d76eb46	0.060282968
221	0x3c8683a7	0.016420199
222	0x3c69f7d2	0.014280276
223	0x3ce7e3d5	0.028306881
224	0x3d861a85	0.06548027
225	0xbd5caa62	-0.053873427
226	0xbd27bdc6	-0.040952466
227	0x3c77173f	0.015081226
228	0xbb9a5286	-0.0047095446
229	0x3d9c08b5	0.07618848
230	0xbd6fdabb	-0.058558207
231	0xba3b0900	-0.0007134825
232	0x3cc38402	0.023866657
233	0xbcc047e4	-0.02347178
234	0x3d49e4f5	0.049290616
235	0x3b6b28ef	0.0035882553
236	0xbdc05146	-0.09390502
237	0xbcdfa0e1	-0.027298393
238	0xbd521a9f	-0.05129492
239	0x3d059f1b	0.032622438
240	0xbcf59167	-0.02997656
241	0xbdecbf68	-0.11559945
242	0xbc3e2b7b	-0.011607046
243	0xbca97b5e	-0.020688709
244	0xbd0a6788	-0.03379014
245	0x3dc82a08	0.09773642
246	0xbcce29de	-0.025166448
247	0x3d9a3656	0.07529895
248	0x3d1c11ee	0.038103037
249	0xbdcb3f18	-0.099241436
250	0x3ca91c51	0.020643385
251	0x3db1a520	0.08674073
252	0xbdcf3723	-0.10117938
253	0xbda511ab	-0.080600105
254	0x3d845b67	0.06462746
255	0x3d84e694	0.06489292

conv_block_2.0.bias f4 [10]
0	0xbd1779fc	-0.036981568
1	0x3e2ceb46	0.16886625
2	0xbce42d51	-0.02785364
3	0xbe459dda	-0.19298497
4	0xbe8cda0f	-0.27510116
5	0x3d870728	0.06593162
6	0x3ef2b975	0.47407117
7	0x3edd54b2	0.4322868
8	0x3f570366	0.8398956
9	0xbd445af3	-0.0479383

conv_block_2.2.weight f4 [10, 10, 3, 3]
0	0xbde2f66c	-0.110821575
1	0xbe4e6715	-0.2015651
2	0xbdfacedc	-0.122464865
3	0xbe1cc268	-0.15308535
4	0xbd61cec2	-0.05512882
5	0x3c364e74	0.011127103
6	0xbd9b13c3	-0.075721286
7	0xbdcedd15	-0.10100762
8	0x3dbe70be	0.092988476
9	0xbe2841ea	-0.16431394
10	0xbe1153f9	-0.1419219
11	0xba9202fc	-0.0011139805
12	0xbe4dd22b	-0.20099704
13	0xbd16652e	-0.036717586
14	0xbf0eee7c	-0.5583265
15	0x3eabce32	0.33555752
16	0x3e81077a	0.25201017
17	0xbf32f3b3	-0.69903105
18	0x3d6193a5	0.055072445
19	0x3b599c57	0.0033204758
20	0x3db37a04	0.08763507
21	0xbd6ce0cc	-0.05783157
22	0x3d85a6c1	0.065259464
23	0x3c3c8cf4	0.011508215
24	0x3d0b82ff	0.034060474
25	0x3d921921	0.07133699
26	0xbdc85a7a	-0.09782882
27	0xbe0e5ad4	-0.13901836
28	0x3db09102	0.08621408
29	0xbe6fa92c	-0.23404378
30	0xbdd725f8	-0.10505289
31	0xbd5031b4	-0.05082865
32	0xbe1ebd6d	-0.15501948
33	0xbcf3af0b	-0.029746553
34	0x3c9ac918	0.018894717
35	0x3cb1b852	0.021694336
36	0xbe8c1195	-0.27357164
37	0xbd4e0266	-0.050295256
38	0xbe0b5dba	-0.13609973
39	0xbd3487b5	-0.044074733
40	0xbc4d5a07	-0.012533671
41	0x3d08767a	0.033316113
42	0xbda3ceda	-0.07998438
43	0xbe49f003	-0.19720463
44	0xbe3e3487	-0.18574725
45	0xbd41260d	-0.04715543
46	0xbdbb8df1	-0.091579325
47	0x3c9f811f	0.01947075
48	0x3d6ec510	0.058293402
49	0x3ca810e2	0.020515863
50	0x3d802a56	0.06258075
51	0x3d7e7172	0.06211991
52	0xbd30235d	-0.043002475
53	0xbd793f4d	-0.060851384
54	0xbe880b7b	-0.2657126
55	0x3e4cedc2	0.20012572
56	0xbf024a6a	-0.50894797
57	0xbf084610	-0.53231907
58	0x3e621c16	0.22081026
59	0x3e74e83a	0.23916712
60	0xbf0c25fb	-0.54745454
61	0x3e4212dc	0.18952507
62	0x3ef651bf	0.48109242
63	0x3ea39931	0.31952813
64	0x3e2cd51a	0.16878167
65	0xbe0d5eb9	-0.13805665
66	0xbe12b06c	-0.14325112
67	0x3c4dcfb9	0.012561732
68	0x3c5629d9	0.013071501
69	0xbdbb0c9b	-0.09133264
70	0xbcb563fb	-0.022142401
71	0x3d214f52	0.039382286
72	0x3eab942c	0.33511484
73	0xbe586c06	-0.21134958
74	0x3d236fd7	0.03990158
75	0x3d014ed1	0.031569306
76	0xbec9774b	-0.39348826
77	0x3de6f657	0.11277454
78	0xbeacceff	-0.33751675
79	0xbebb8d6a	-0.36631328
80	0xbe9d9987	-0.30781195
81	0xbd815104	-0.06314281
82	0x3d0aa251	0.033846203
83	0xbd5be60d	-0.05368619
84	0x3d07029f	0.032961484
85	0xbda054c0	-0.07828665
86	0xbd23bf8a	-0.039977588
87	0x3d82db0a	0.06389435
88	0xbc5c83b6	-0.013459137
89	0xbd4ab694	-0.049490526
90	0x3d51fb9c	0.051265344
91	0xbd171d19	-0.036892984
92	0x3d41ecd9	0.047345016
93	0xbdbe044d	-0.09278164
94	0xbde41562	-0.11136891
95	0xbe4cb334	-0.19990236
96	0xbc4d1c2f	-0.0125189265
97	0xbda34841	-0.07972766
98	0xbdf62224	-0.120182306
99	0xbdfd21cc	-0.12359962
100	0xbd229dfc	-0.039701447
101	0xbe044d14	-0.12920028
102	0x3eec1240	0.46107674
103	0xbe16f7de	-0.14742991
104	0xbe763035	-0.24041827
105	0xbdf627aa	-0.12019284
106	0xbe80bdf7	-0.25144932
107	0xbebbd1e0	-0.3668356
108	0x3cf46f88	0.029838338
109	0x3cbbe889	0.02293803
110	0x3d9f2145	0.077700175
111	0x3d9978c0	0.07493734
112	0xbd746f94	-0.05967672
113	0xbd3f9648	-0.04677418
114	0xbce12a81	-0.027486088
115	0xbd9ef45a	-0.0776145
116	0xbd0762fd	-0.033053387
117	0xbdffa0c7	-0.12481838
118	0x3dfe8578	0.12427801
119	0x3e3e0327	0.1855589
120	0x3d1c31b3	0.038133334
121	0x3d278c5f	0.040905353
122	0xbd5fbd34	-0.054623798
123	0xbb94417e	-0.004524409
124	0x3ddbae9d	0.10726664
125	0xba4ba19b	-0.00077679165
126	0xbc3f8119	-0.011688494
127	0xbd93da80	-0.0721941
128	0x3dcafa48	0.099110186
129	0x3c1f809d	0.009735254
130	0xbd7a87e1	-0.06116474
131	0x3e18fe36	0.14940724
132	0xbbabb450	-0.005240001
133	0x3ca80f10	0.020514995
134	0xbd03cdb3	-0.032178592
135	0x3c90bce4	0.017668195
136	0x3ac6a5e5	0.0015155642
137	0x3defc106	0.11706738
138	0xbdc9e504	-0.098581344
139	0xbe48efd9	-0.19622745
140	0xb75c0106	-1.311326e-05
141	0xbd4c6545	-0.049901266
142	0xbd4dd544	-0.050252214
143	0xbbd33d7a	-0.0064465376
144	0x3d956964	0.07295492
145	0x3dca5d14	0.098810345
146	0x3ed838b7	0.4223077
147	0xbd64d6ca	-0.0558689
148	0x3e017812	0.1264346
149	0xbe89a335	-0.2688233
150	0x3db2e653	0.08735337
151	0x3e631867	0.22177278
152	0xbe06fcd3	-0.13182382
153	0x3e6906bc	0.22756475
154	0xbda33589	-0.079691954
155	0x3d1ff9b8	0.03905651
156	0x3d669288	0.056292087
157	0xbe51bd09	-0.20482267
158	0xbeb5d905	-0.35517135
159	0x3de4f687	0.11179834
160	0xbe919a0f	-0.2843785
161	0x3eaf7203	0.34266672
162	0xbd23f9f6	-0.040033303
163	0xbe7c65be	-0.24648187
164	0xbe33109c	-0.17486805
165	0x3cbf8816	0.02338032
166	0xbe67d09a	-0.22638169
167	0xbe6b53d1	-0.22981192
168	0xbc1681d8	-0.009186231
169	0xbdf02443	-0.117256664
170	0x3e82845b	0.25491604
171	0xbcb36d02	-0.021902565
172	0x3d01fc76	0.031734906
173	0x3d9c188c	0.076218694
174	0xbd5f43d5	-0.05450805
175	0xbd500dfb	-0.050794583
176	0x3d593c7b	0.053036194
177	0x3bc63cef	0.0060497443
178	0xbb9f3857	-0.004859011
179	0xbdbc6b2e	-0.092001304
180	0x3e85f4d6	0.26163357
181	0x3dae5976	0.08513157
182	0xbe41910f	-0.18902992
183	0xbd5b3fc9	-0.053527627
184	0x3e37487e	0.17898747
185	0xbd67dbe4	-0.05660619
186	0xbc408974	-0.011751521
187	0x3da13f48	0.07873398
188	0x3d805eed	0.06268106
189	0xbf332755	-0.6998189
190	0x3ccd92d8	0.025094435
191	0xbf1374f1	-0.57600313
192	0xbf064cae	-0.52460754
193	0x3f152ce3	0.58271617
194	0xbcba0f82	-0.022712473
195	0xbe51cd6e	-0.20488521
196	0xbd89247f	-0.06696414
197	0x3eb9dd06	0.3630144
198	0xbd40de61	-0.047087077
199	0xbc8090a2	-0.015693966
200	0xbced43e7	-0.028963042
201	0xbd0470e8	-0.03233424
202	0x3db95194	0.09048763
203	0x3d55cdac	0.052198097
204	0xbc84fda1	-0.016234221
205	0xbcab5593	-0.020914828
206	0x3d1f9f35	0.03897019
207	0xbd1d1f3e	-0.038359873
208	0x3df42eb9	0.11922974
209	0xbc6fe7fd	-0.014642713
210	0x3d9065c8	0.07050663
211	0x3d9a70b6	0.07541029
212	0xbe58f18a	-0.2118589
213	0x3d521df8	0.05129811
214	0x3bb7e016	0.00561143
215	0xbdb38e2d	-0.08767352
216	0x3e93be8d	0.28856316
217	0xbd255db9	-0.040372584
218	0xbbd03e92	-0.006355115
219	0x3cc993bc	0.024606578
220	0x3d321c8e	0.043484263
221	0xbe2a6321	-0.16639377
222	0x3db85076	0.08999722
223	0x3ce37e89	0.027770298
224	0xbde302f0	-0.11084545
225	0x3e2be5d6	0.16786894
226	0x3d891703	0.06693842
227	0xbe3132e8	-0.17304575
228	0x3e3381fd	0.17530055
229	0x3d1c9921	0.038231973
230	0xbd803897	-0.06260794
231	0xbacbc0ec	-0.0015545166
232	0xba04e14c	-0.0005068972
233	0xbdc079d8	-0.0939824
234	0xbec6316d	-0.38709584
235	0xbd5221fb	-0.051301938
236	0x3eb5740a	0.35440093
237	0xbe14e39d	-0.14539953
238	0x3d9f2d5f	0.07772326
239	0xbe30a86f	-0.17251752
240	0xbcd8b020	-0.02645117
241	0x3d87a87e	0.06623934
242	0x3da6d5f5	0.08146278
243	0xbeb83af3	-0.35982475
244	0x3f1d95f7	0.61556953
245	0x3dac0ee3	0.08401277
246	0xbea2466a	-0.31694347
247	0x3e00f294	0.12592536
248	0xbc1d3707	-0.009595639
249	0x3e3062c1	0.17225172
250	0xbee983e3	-0.45608434
251	0xbd330995	-0.04371031
252	0xbe17581e	-0.14779708
253	0xbdfe952b	-0.12430795
254	0x3cfb45a5	0.030672858
255	0xbb4b0ece	-0.0030984166

conv_block_2.2.bias f4 [10]
0	0x3e936fb0	0.28796148
1	0x3dd22097	0.10260122
2	0x3dad1ac3	0.0845237
3	0xbb3626df	-0.0027794165
4	0xbea5a976	-0.3235585
5	0x3e5bcc0c	0.21464556
6	0x3ce34e96	0.027747434
7	0xbd88faf9	-0.06688494
8	0x3c9080c6	0.017639529
9	0xbe67d740	-0.22640705

classifier.1.weight f4 [10, 490]
0	0xbb40a075	-0.0029392515
1	0xbd3acbc7	-0.045604493
2	0x3ddf77b0	0.109115005
3	0xbdf08fb8	-0.11746162
4	0x3d4f579a	0.050620653
5	0xbc370bcc	-0.011172246
6	0x3de05b43	0.10954907
7	0x3d98e6f0	0.07465923
8	0x3e8409e4	0.25788796
9	0x3b962510	0.004582055
10	0xbe2bcc17	-0.16777073
11	0x3d1637e6	0.036674403
12	0x3dbda102	0.092592254
13	0x3e047115	0.12933762
14	0x3da4d0b6	0.08047621
15	0x3e0289d5	0.12747891
16	0x3e2241b8	0.15845382
17	0xbe488e26	-0.19585475
18	0x3cbc183e	0.022960778
19	0x3e1b36d2	0.15157631
20	0xbde55119	-0.11197109
21	0xb9ddeb2e	-0.00042327627
22	0x3db3507e	0.08755587
23	0xbc988e2a	-0.018622477
24	0xbde8fc6d	-0.113762714
25	0x3d1860fb	0.037201863
26	0x3c5e59c1	0.013571204
27	0xbdd187e7	-0.102309994
28	0xbda0d35b	-0.07852813
29	0xbdb80654	-0.08985582
30	0xbd28970b	-0.04115967
31	0xbd856a3f	-0.065144055
32	0x3e35b947	0.17746459
33	0xbde77a67	-0.11302643
34	0xbd1fda48	-0.03902653
35	0x3d25904b	0.04042081
36	0xbe0d74eb	-0.13814132
37	0xbd243cd1	-0.04009706
38	0xbb903b76	-0.0044016195
39	0xbd2dbfd8	-0.042419285
40	0x3e728989	0.23685278
41	0xbd3bc111	-0.04583842
42	0x3db5be20	0.08874154
43	0xbe03d70b	-0.12875001
44	0xbe5993c3	-0.21247773
45	0xbc557bb2	-0.01302998
46	0xbd10405d	-0.03521763
47	0x3e9f0da7	0.31065103
48	0xbca7ba38	-0.020474538
49	0x3bc44e2f	0.0059907655
50	0xbdbb19c7	-0.09135776
51	0xbd9ec24f	-0.07751905
52	0x3c88d05c	0.016700916
53	0xbc09b885	-0.008405809
54	0x3e2daf98	0.16961515
55	0x3dc93606	0.09824757
56	0x3baa6743	0.005200298
57	0xbdf59d40	-0.11992884
58	0x3d8b3071	0.06796349
59	0x3d930b9e	0.0717995
60	0xbe49670e	-0.19668218
61	0x3db4a5e0	0.08820701
62	0x3d73f97a	0.05956409
63	0xbc76fb8a	-0.01507462
64	0x3b9c4e1c	0.0047700536
65	0x3d764bbf	0.06013083
66	0x3dbd9ebe	0.09258793
67	0x3e0fd8b0	0.14047503
68	0x3e45d38e	0.19318983
69	0x3cab37a2	0.020900551
70	0xbcc894f7	-0.024485094
71	0x3e0f08f4	0.13968259
72	0xbd0ee0bf	-0.034882303
73	0x3e0ab98b	0.13547342
74	0x3d9551a7	0.072909646
75	0xbd90ed29	-0.07076485
76	0xbc9f55e7	-0.019450141
77	0x3c74c029	0.014938393
78	0x3de3fbd8	0.1113202
79	0x3ca9d88d	0.020733142
80	0x3d1bf646	0.03807666
81	0xbd1fad56	-0.038983665
82	0xbd8329cc	-0.064044565
83	0x3c50f421	0.012753517
84	0xbd4b88e8	-0.04969111
85	0xbd4381c1	-0.047731165
86	0x3d7d6cd2	0.061871357
87	0xbe0562e8	-0.13026011
88	0xbdb1e4c4	-0.08686212
89	0x3b658a19	0.003502494
90	0xbd3566d6	-0.044287525
91	0x3d27f579	0.041005585
92	0xbe007eba	-0.12548342
93	0x3e1e8a81	0.15482523
94	0xbe55d96b	-0.2088372
95	0xbdb7e0a8	-0.08978397
96	0x3d11eccc	0.035626218
97	0xbd38975d	-0.045066226
98	0x3dce8b70	0.10085189
99	0x3d4e8316	0.050417982
100	0x3d22a052	0.039703675
101	0xbb4deac5	-0.003142045
102	0x3d7a649b	0.0611311
103	0x3d149f55	0.036284763
104	0xba9e8bb1	-0.0012096075
105	0x3e6e010e	0.2324259
106	0xbc97f86e	-0.018551078
107	0xbdbed020	-0.093170404
108	0x3d7e145b	0.06203113
109	0xbd30a0af	-0.04312199
110	0x3d8be637	0.06831019
111	0x3d7e4bf9	0.062084172
112	0x3e07e8cb	0.13272397
113	0x3e225e63	0.15856318
114	0x3e5a754b	0.21333806
115	0xbcf1bc03	-0.029508596
116	0x3d56ab10	0.05240923
117	0xbd112d4c	-0.03544359
118	0xbd9d57ac	-0.07682738
119	0x3bb9a648	0.005665574
120	0xbe2e3a15	-0.17014344
121	0x3e45456f	0.19264768
122	0xbe5dd9fc	-0.21665186
123	0xbda8ec1e	-0.08248161
124	0x3df3785c	0.11888191
125	0xbd95fa52	-0.073231354
126	0xbe699911	-0.22812296
127	0x3c751b3d	0.014960107
128	0x3d4ff5c2	0.050771482
129	0xbd6de492	-0.05807931
130	0xbe2572cc	-0.16157073
131	0x3e159669	0.14608158
132	0x3d97722a	0.07394822
133	0xbe207bdd	-0.1567225
134	0x3d350832	0.04419727
135	0x3d553dab	0.052060764
136	0xbdd013fd	-0.101600625
137	0xbde6d419	-0.11270923
138	0xbd75ffab	-0.060058277
139	0x3d2012d3	0.039080452
140	0x3d19e87d	0.037575234
141	0x3d2ff44d	0.042957593
142	0x3cb7b693	0.022425925
143	0xbdd3be91	-0.10339082
144	0xbe0db172	-0.13837221
145	0xbe24dc7e	-0.16099736
146	0xbe1575d3	-0.14595728
147	0x3e28abad	0.16471739
148	0xbdcf98c7	-0.10136562
149	0xbd5e9f5a	-0.05435119
150	0x3c11f367	0.008908129
151	0x3dabb35e	0.08383821
152	0x3d62f7cb	0.055412095
153	0xbc6b8ce9	-0.014376857
154	0xbddbd007	-0.107330374
155	0xbdb08aa7	-0.08620196
156	0xbe22cb98	-0.15897977
157	0xbaba04bf	-0.0014192088
158	0x3cdc68d6	0.026905458
159	0xbdcc35dc	-0.0997121
160	0xbdf454f5	-0.11930267
161	0xbe0417c0	-0.12899685
162	0x3cdb809d	0.026794726
163	0xbe09e784	-0.13467222
164	0x3cffaa33	0.031209087
165	0xbd08756a	-0.0333151
166	0xbd452d8c	-0.04813914
167	0x3d192f94	0.03739889
168	0x3cc70240	0.024293065
169	0x3e1e43d6	0.15455565
170	0xbd4d6e1a	-0.05015383
171	0x3c1ac8e8	0.009447314
172	0x3cb897e5	0.022533366
173	0x3d0693f2	0.032855935
174	0x3e227a32	0.15866926
175	0xba184894	-0.0005809155
176	0x3e4b15ca	0.1983253
177	0xbd4dd6db	-0.05025373
178	0xbd9ea66e	-0.07746588
179	0xbd2fc0ab	-0.042908352
180	0xbcacefc7	-0.021110428
181	0x3e3f0a24	0.18656212
182	0xbd64d83d	-0.055870283
183	0x3e697495	0.22798379
184	0xbde06ba5	-0.109580316
185	0xbdf7b04b	-0.12094172
186	0xbcd26dc4	-0.025687106
187	0xbc1f4c2b	-0.00972275
188	0x3df5335b	0.11972686
189	0xbabc6933	-0.0014374614
190	0xbe03ea02	-0.12882236
191	0xbe021083	-0.12701611
192	0xbd11bb35	-0.035578925
193	0xbdd01320	-0.10159898
194	0xbd431005	-0.0476227
195	0x3d67d5d6	0.056600414
196	0x3c72b9ef	0.014814838
197	0xbb7f8801	-0.0038990977
198	0x3c0f62a2	0.008751543
199	0xbcdccbd7	-0.026952667
200	0x3d0f8631	0.035040084
201	0x3c824298	0.015900895
202	0x3d3f7eba	0.046751715
203	0xbc069c32	-0.008215951
204	0x3c19d16a	0.009388307
205	0x3dff0ade	0.124532446
206	0x3e0e3446	0.13887128
207	0x3dd34fb3	0.10317936
208	0xbc96d162	-0.018410388
209	0xbcb4c380	-0.022065878
210	0x3daab5a3	0.08335426
211	0x3e524ee3	0.20537905
212	0xbc0e5d95	-0.008689304
213	0x3db99bb4	0.09062901
214	0xbb8c140f	-0.004274852
215	0x3eaa2776	0.3323323
216	0x3de73933	0.11290207
217	0x3c90571c	0.017619662
218	0xbd8a6d79	-0.067591615
219	0xbe0c0057	-0.13672005
220	0xbc69d193	-0.014271158
221	0x3b1b61a1	0.0023709314
222	0x3e42dca6	0.19029483
223	0xbcbc8ff9	-0.02301787
224	0x3cbf9732	0.023387525
225	0xbd31b64c	-0.043386742
226	0xbd446aba	-0.047953345
227	0x3c78009f	0.015136867
228	0xbdbe4ca0	-0.09291959
229	0xbcb58311	-0.022157224
230	0xbda45b8d	-0.080252744
231	0xbb659290	-0.0035029985
232	0xbd88b36c	-0.06674847
233	0x3d2b866e	0.04187625
234	0xbcd04d28	-0.025427416
235	0x3d92da3a	0.0717053
236	0x3bd4c65e	0.006493374
237	0xbdf578e7	-0.11985951
238	0x3d22cf7e	0.03974866
239	0xbd1e923a	-0.03871367
240	0x3d2af2db	0.04173551
241	0xbd8b5fe7	-0.06805401
242	0xbdcbc52c	-0.09949717
243	0xbd745c71	-0.05965847
244	0x3c9b38f8	0.018948063
245	0xbce4e566	-0.027941417
246	0x3dcefb77	0.10106557
247	0xbd1753a2	-0.036944993
248	0x3dc90f4e	0.09817372
249	0x3dcd7d5a	0.100336745
250	0x3e9741a4	0.29542267
251	0x3d76f2b9	0.060290072
252	0xbbda06fe	-0.0066536656
253	0xbd959b39	-0.07304997
254	0x3ddd02f7	0.10791581
255	0x3d20dbef	0.039272245

classifier.1.bias f4 [10]
0	0x3daeaabb	0.08528658
1	0xbe000f56	-0.1250585
2	0x3ee86541	0.4538975
3	0xbdb64f62	-0.0890186
4	0xbecb73b9	-0.39736727
5	0xbe4d5d7e	-0.20055196
6	0x3e47efc1	0.19525053
7	0xbbb35cce	-0.0054737097
8	0x3e15f0ac	0.1464259
9	0xbdcd3e07	-0.100215964
